model3.tflite (tflite, 413940 bytes, 20 tensors)

sequential/dense/BiasAdd/ReadVariableOp f4 [128]
000000 db 8c 86 be 8c 77 b0 be 48 b6 7b be b0 1e 97 be
       -0.2627934 -0.34466207 -0.24581254 -0.295156
000010 fc f6 2f be 50 73 36 be e0 40 d1 be 4c 8a 50 be
       -0.17184061 -0.17817426 -0.40869808 -0.20365256
000020 fd 88 b8 be ba 7b 26 be 44 4d 67 be 41 7c 93 be
       -0.36042014 -0.16258135 -0.22588068 -0.28805736
000030 50 8d 61 be 5c 84 ad be 9e b4 85 be 18 d5 b7 be
       -0.22026563 -0.33890045 -0.26114362 -0.35904765
000040 79 11 03 be a4 f3 04 be ce 7c c2 be e4 22 a6 bd
       -0.12799634 -0.12983567 -0.37985843 -0.081121236
000050 ea bc 42 be 23 76 28 be 65 9b 0f be fe ac 71 be
       -0.19017377 -0.16451316 -0.14024122 -0.23601148
000060 08 f8 aa be 00 04 6a be 00 e7 92 be 02 20 1d be
       -0.33392358 -0.22853088 -0.28691864 -0.15344241
000070 da fb e6 bd 4d 9d d6 bd c2 d8 1b be be 6e 7c bd
       -0.112785056 -0.104792215 -0.15219405 -0.06162905
000080 b2 ac 5c be 78 40 54 be a1 f1 73 be e5 d2 a0 be
       -0.21550253 -0.20727718 -0.23822643 -0.314109
000090 b1 9d 8c bd d1 23 9e be dd c2 81 be 39 6f ed bd
       -0.06866015 -0.308867 -0.2534398 -0.1159348
0000a0 b3 a5 03 be 93 27 8f be 83 17 14 be 8f 72 59 be
       -0.12856178 -0.2795988 -0.14462094 -0.21235107
0000b0 64 e3 0e be 42 75 ae be ca 03 9a be a7 fe c5 bd
       -0.1395393 -0.34073836 -0.30081016 -0.09667712
0000c0 33 5c 07 be ca b7 15 be 8f ec 63 be 10 64 81 be
       -0.13218765 -0.14620891 -0.22258209 -0.25271654
0000d0 49 5c da be 58 60 6f be db 87 b7 be 70 81 97 be
       -0.42648533 -0.23376596 -0.35845837 -0.2959094
0000e0 05 88 c0 bd 63 83 8e be ec 2e 7c be 9e 5f 38 be
       -0.09400944 -0.27834615 -0.24627274 -0.18005225
0000f0 38 71 c2 be 40 1d 9f be 06 70 2c be 95 86 84 be
       -0.37977004 -0.31077003 -0.16839609 -0.25883928
000100 fe c8 42 be df fa 72 be 2e 9a 94 be f2 0c a9 be
       -0.19021985 -0.23728512 -0.2902388 -0.3301769
000110 a0 cf 82 be e5 a4 8a be 33 98 6f be 2a 3d 99 be
       -0.2554903 -0.2707893 -0.23397903 -0.29929477
000120 48 53 8d be 7d a6 a6 be ac a0 5a be e3 d1 a5 be
       -0.276026 -0.32548895 -0.21350354 -0.32386693
000130 b6 da 45 be 98 4d 74 be f9 f5 53 be e3 76 a6 be
       -0.19321713 -0.23857725 -0.206993 -0.32512578
000140 fe 2a 37 3d c0 ab 12 be ee b8 2b be c5 5a 1b be
       0.044718735 -0.1432333 -0.16769764 -0.15171345
000150 33 31 25 be 0b a7 ad be 02 40 5c be 18 11 52 be
       -0.1613205 -0.33916506 -0.21508792 -0.20514333
000160 40 2d 02 be 9e f3 81 be 8b 24 70 be b7 80 15 be
       -0.12712574 -0.25381178 -0.2345144 -0.14599882
000170 9c b6 34 be 75 3f 6a bd 01 f8 bf be c8 93 76 be
       -0.17647785 -0.057189424 -0.374939 -0.24079812
000180 55 f6 a5 be d5 cd 32 be 5b 00 87 be 38 82 90 be
       -0.324145 -0.17461331 -0.2636746 -0.2822435
000190 53 6a a7 be 23 3f 2d be d8 6e 61 be ea d2 43 be
       -0.32698306 -0.16918616 -0.2201494 -0.19123426
0001a0 3d 65 a1 be 19 6c 63 be f4 70 64 be 12 e9 6c be
       -0.3152255 -0.22209205 -0.22308713 -0.23135784
0001b0 a3 e2 8b be 7f 01 a2 be 61 f0 a5 be 99 ec 6c be
       -0.27321348 -0.31641766 -0.32409957 -0.2313713
0001c0 28 8c 8a be 18 63 4f be 96 fb 75 bd 99 5e 61 be
       -0.27060056 -0.20252645 -0.060054384 -0.22008742
0001d0 9d d8 98 be 0f ca 91 be 57 b0 c2 be 28 8a 55 be
       -0.29852763 -0.2847447 -0.38025162 -0.20853484
0001e0 a1 e4 9b be fe c6 bc be c2 a5 26 be aa 2a 08 bc
       -0.30447868 -0.3687057 -0.16274169 -0.008310953
0001f0 61 6b b5 bd 40 2c 77 be f6 81 65 be 0b 0a 21 be
       -0.088583715 -0.24137974 -0.22412857 -0.15726487

sequential/dense_1/BiasAdd/ReadVariableOp f4 [23]
000000 6e da aa 3d 93 d6 a2 be f0 0a cb 3d 30 f6 a5 3e
       0.083424434 -0.31804332 0.099141955 0.3241439
000010 a1 3b 67 3d e2 63 e6 3d 69 4b 9f 3e 35 dd 13 bf
       0.05645335 0.1124952 0.3111222 -0.5775941
000020 69 cb ed be 7c 13 b7 3e 79 b3 15 bf 47 78 72 be
       -0.46444252 0.35757053 -0.5847698 -0.23678695
000030 84 b4 67 bf 1b 5b f4 be 66 66 de 3e 6c 29 62 be
       -0.9050982 -0.47725758 0.434375 -0.22086114
000040 bd df 31 3d dd c9 a5 3e c8 1f e1 3e 51 40 12 3f
       0.043426264 0.32380572 0.4396956 0.5712939
000050 79 a0 a8 be 50 53 0e 3e 08 15 56 bd
       -0.3293493 0.13898969 -0.05226615

sequential/conv2d/BiasAdd/ReadVariableOp f4 [32]
000000 8f d8 90 3f e7 cf e1 3c bb 82 d4 3e ad fe 00 3e
       1.1316088 0.027564956 0.4150599 0.12597151
000010 89 bc 80 3f 2e c7 20 3f 03 17 d0 3e e7 e4 36 3f
       1.0057536 0.62803924 0.40642557 0.7144303
000020 a5 84 ac 3f 13 e3 cf 3d ab 37 bf 3f ef 0e 6b 3f
       1.347798 0.10150733 1.4938864 0.9181966
000030 63 e6 74 3f 69 88 5d be 78 fd da 3e 08 e0 4b 3e
       0.9566404 -0.21634068 0.42771506 0.1990968
000040 24 4b 8f 3f c2 21 22 3f e7 85 a4 3f cc eb 1d 3f
       1.1194806 0.6333276 1.2853364 0.6168792
000050 da dd 39 3f 0d f5 4d 3d 42 81 b9 3d 9b a8 10 3f
       0.72604144 0.050282527 0.09057857 0.5650727
000060 9a f4 7b 3f fc de 93 3d 42 12 b7 3e 97 aa 9f 3d
       0.9842011 0.07220265 0.35756117 0.07796209
000070 3c 30 9b 3f 0a 34 86 3c e7 8a 53 3f ee cd 8e 3f
       1.2124095 0.016382236 0.82633823 1.1156595

sequential/conv2d_3/BiasAdd/ReadVariableOp f4 [64]
000000 f9 c8 13 be e2 99 0d bf c4 45 16 be 90 bf bf be
       -0.14432134 -0.5531293 -0.14675051 -0.37450838
000010 f2 c9 e2 bd 25 cc 10 bf 30 c7 9f 3e e2 32 70 be
       -0.11073674 -0.565615 0.31206656 -0.2345691
000020 22 cb 46 be 98 b3 c8 bd f5 64 97 be 10 f6 31 3e
       -0.19413427 -0.0979988 -0.29569212 0.17379022
000030 de 14 ab be ee 2c ea be f9 eb b1 be b7 73 24 be
       -0.33414358 -0.45737404 -0.34750345 -0.16059767
000040 0d b7 3d bc 5d bb bf bd 0a e0 af bd 32 56 67 be
       -0.011579287 -0.093619086 -0.08587654 -0.22591475
000050 3d e7 b3 be 21 d2 56 be 24 14 89 be 3c 58 ac bd
       -0.35137358 -0.20978595 -0.2677318 -0.08415267
000060 94 5f 12 bf 84 46 0b bf 64 e7 cb bc e0 40 9e be
       -0.5717709 -0.54404473 -0.02489061 -0.3090887
000070 59 95 9e be e7 8a f4 be 1a 82 6c bc 4c b4 2d be
       -0.30973318 -0.47762224 -0.0144353155 -0.16963309
000080 f4 2d 05 be 0e 51 07 bd c6 57 81 be 7e 4b a7 3d
       -0.13005811 -0.033036284 -0.25262278 0.08168696
000090 20 c5 54 be f0 8d b8 be 81 f3 da bd 1f ed b4 be
       -0.20778322 -0.3604579 -0.10690976 -0.3533716
0000a0 bb 8f 18 be 63 58 9d be d3 dc a6 be ea a4 cf bd
       -0.14898579 -0.30731496 -0.3259035 -0.10138877
0000b0 58 03 49 be fe 81 cd bd 65 6f 41 be db 33 bf be
       -0.19630182 -0.1003456 -0.1889015 -0.3734425
0000c0 04 7c 8d be f3 3a 06 bf 61 e9 83 be 97 fe 98 be
       -0.2763368 -0.524337 -0.2576399 -0.29881737
0000d0 d3 be 19 be 10 71 19 be 2c 81 26 3e a4 7c ad bd
       -0.150142 -0.14984536 0.16260213 -0.08471039
0000e0 a0 15 12 bf 02 ea bf be a9 33 75 be fe ba 3e be
       -0.5706425 -0.3748322 -0.23945488 -0.1862602
0000f0 6d d3 61 bd 7c 57 cb be 94 00 8d bc 60 ca 08 bf
       -0.055133272 -0.39715183 -0.01721219 -0.534338

sequential/conv2d_2/BiasAdd/ReadVariableOp f4 [64]
000000 4a 12 62 3d 29 d0 d7 be 31 49 10 bf 20 b0 d7 be
       0.055193223 -0.42151 -0.5636168 -0.4212656
000010 b1 71 a3 be db 2c f8 be 21 b2 16 bf 24 6a 95 be
       -0.31922677 -0.48471722 -0.58865553 -0.2918254
000020 20 32 b4 be 2d 08 98 3e 5d a8 22 bf 6a 85 7f 3e
       -0.35194492 0.29693738 -0.6353815 0.24953237
000030 31 ed 0a bf 4c f9 91 3d 73 3c 66 bd 07 f4 82 be
       -0.54268175 0.07127628 -0.056209993 -0.25576803
000040 7f b6 00 bf 63 21 4c be cf 29 08 bf fd ef af be
       -0.50278467 -0.19934611 -0.53188795 -0.34362784
000050 cd b5 ed be f9 77 18 bf 5e 44 fc be 7c d3 88 3d
       -0.46427765 -0.59558064 -0.4927091 0.066809624
000060 3d ca 0b be ea d0 49 be f4 de 0a bf 28 6d 92 3d
       -0.13651367 -0.197086 -0.5424645 0.07149726
000070 6f 62 71 bd ec e2 2b bf 1e 60 07 bf cf 37 45 bd
       -0.058931764 -0.6714313 -0.5288104 -0.048148926
000080 1c bb cd be 4d 60 dc be 5e 69 c6 be da b4 8f be
       -0.40181816 -0.43042222 -0.38752264 -0.28067666
000090 53 7b 28 bf 2e b0 2f bf 49 29 7c be c8 e6 7b be
       -0.6581318 -0.68628204 -0.24625124 -0.24599755
0000a0 c6 5c c9 be 5d 0b e9 be 77 c5 ec be b4 4c 1c be
       -0.39328593 -0.45516482 -0.46244404 -0.15263635
0000b0 78 19 ab 3e 1d d2 b5 be 46 95 b0 be be 7d b2 bd
       0.3341787 -0.35511866 -0.34488887 -0.0871539
0000c0 95 8b 30 bd fd b4 09 be b5 13 ac be 6f 29 5d bf
       -0.043101866 -0.13447948 -0.33608785 -0.8639135
0000d0 05 9d 27 bf e8 ed d9 bd a1 8b 4b be 3e 63 c6 be
       -0.6547397 -0.1064108 -0.19877483 -0.3874759
0000e0 b7 8e c5 bd 5b 6f 4e be a8 6b 64 bd 81 d6 30 be
       -0.09646361 -0.20159666 -0.05576673 -0.17269327
0000f0 b3 c9 7d be 8a aa 15 bf a9 64 48 be 9c 0b bb be
       -0.24783973 -0.58463347 -0.19569649 -0.36532295

sequential/conv2d_1/BiasAdd/ReadVariableOp f4 [32]
000000 52 a2 0a 3e f0 5b 7e be bb b8 d1 3d 61 16 57 3e
       0.13538483 -0.24839759 0.10240313 0.2100463
000010 10 75 41 be 0e 59 d1 bd 3d fc 19 3e 27 71 32 be
       -0.18892312 -0.10222064 0.15037628 -0.17425977
000020 a2 ea c6 be c8 94 62 be c6 90 72 be 48 aa b2 be
       -0.38850886 -0.22127068 -0.23688039 -0.3489554
000030 41 47 d6 bc 3b 53 f0 bd a4 bf c6 be c3 8b 9d 3d
       -0.026157023 -0.11734625 -0.38818085 0.07692673
000040 0a d7 75 3d a6 0e 96 3d 75 ce 13 b9 20 c8 c9 3d
       0.06001953 0.07327013 -0.00014095924 0.09852624
000050 b4 38 7f ba 03 af 25 be d7 86 85 be a0 6b 6f be
       -0.00097359275 -0.16180043 -0.26079437 -0.233809
000060 dc ef cd be ff 84 5e bd e0 0c 76 3d 0e f3 2a be
       -0.4022206 -0.054326054 0.060070872 -0.1669428
000070 8f 0d f7 be b2 d8 da be 00 56 ac be 9b a6 84 3e
       -0.48252532 -0.4274345 -0.33659363 0.2590836

sequential/batch_normalization/FusedBatchNormV3 f4 [32]
000000 80 8b c1 3c 34 8f be 3e ab e0 3a 3e c2 b0 c4 40
       0.02362609 0.3721863 0.18249767 6.146577
000010 f3 15 77 3c cb 33 c2 3c dc 14 6b 3c 77 e5 80 3f
       0.015080917 0.023706337 0.014348235 1.0070027
000020 93 17 9b 3c 70 88 38 41 7c f1 f1 3c b0 bc 4a 3f
       0.01893214 11.53331 0.029534094 0.79194164
000030 cc 76 a0 3c 5d 59 22 3c 6a 5f 0d 40 d3 c5 94 3b
       0.019587897 0.009909001 2.2089486 0.004540184
000040 d7 65 ad 3c e3 01 87 3d d6 ff 4f 3d 48 97 0e 3d
       0.021166725 0.06592157 0.050781094 0.03481224
000050 3c a9 ba 3e 58 c4 ab 41 42 ed 98 3f 7c a8 f0 3e
       0.3645724 21.470871 1.1947405 0.47003543
000060 6f ec a9 3d cc d0 d1 41 35 e1 99 41 e7 20 62 41
       0.08297049 26.226952 19.234964 14.133033
000070 4d cb eb 3e ce 3a e9 3f 50 7a 45 3e 1b 69 e2 3b
       0.46053544 1.8221071 0.1928494 0.006909502

sequential/batch_normalization/FusedBatchNormV31 f4 [32]
000000 13 c6 c3 bf 39 30 49 3e 30 2e 9d bc 40 9a f3 3b
       -1.5294822 0.19647302 -0.019187063 0.0074341595
000010 e3 b7 a1 bf 52 9f 77 bf e6 26 0b bf 41 e9 e6 bd
       -1.2634243 -0.9672748 -0.5435623 -0.112749584
000020 0d d3 ad bf 60 32 94 3c b0 ec 97 bf ec 67 b8 bd
       -1.3580033 0.018090427 -1.1869106 -0.090041965
000030 87 31 8f bf 95 41 ba bf fa a0 27 3d fc 55 df bd
       -1.118699 -1.4551264 0.040925004 -0.10905072
000040 f9 9b 80 bf 6e 44 90 bd 8d 02 1e c0 14 41 94 bf
       -1.0047599 -0.07044302 -2.4689057 -1.158236
000050 78 8a 19 3e fc d4 43 3e 7c d2 92 3d 72 34 9a bd
       0.14994228 0.19124216 0.07169053 -0.075295344
000060 0a 46 b6 bf db 3c 9d bc 8a 6d 8d bc 8a e6 f7 3d
       -1.4240124 -0.019194057 -0.017264146 0.12104519
000070 50 64 14 bd a9 cc 7e 3e e2 4d 3d 3d 16 fb 68 bf
       -0.036228478 0.24882759 0.046216853 -0.91008127

sequential/batch_normalization_1/FusedBatchNormV3 f4 [32]
000000 3f 94 1d 3f 2e 53 9f 3e 7f 7b 15 3f fa 0d fb 3e
       0.6155433 0.3111815 0.58391565 0.490341
000010 ed d8 97 3e 76 b5 a2 3e a9 29 ca 3e d8 77 17 3f
       0.2965769 0.3177907 0.3948491 0.5916724
000020 2d 77 64 3e c1 e6 23 3f f9 b1 ac 3e 0b b5 e8 3e
       0.22311087 0.6402398 0.33729532 0.45450625
000030 c3 4f d4 3e 18 6f 0b 3f 19 3d 65 3e 60 07 21 3f
       0.41467103 0.5446639 0.22386588 0.6290188
000040 a0 74 f0 3e f6 8c c7 3e 04 8e ec 3e 29 17 e3 3e
       0.46963978 0.38974732 0.462021 0.44353607
000050 c0 75 fb 3e cd a0 a0 3e f7 3e 96 3e 41 8e e5 3e
       0.49113274 0.3137268 0.29344913 0.44835094
000060 85 fa fb 3e 79 88 b7 3e 12 b4 ec 3e dd 9a 16 3f
       0.4921457 0.35846308 0.46231133 0.5883005
000070 5b 02 c0 3e c2 37 cf 3e da d8 d6 3e a0 be 09 3f
       0.37501797 0.40472227 0.4196232 0.53806496

sequential/batch_normalization_1/FusedBatchNormV31 f4 [32]
000000 d9 04 98 bf 6b f9 bc be 9e 7b 52 bf 39 fe 4a bf
       -1.1876479 -0.3690904 -0.82219875 -0.79294163
000010 de 52 36 bf 3c 44 03 bf 54 ba 53 bf 2a f5 28 bf
       -0.71220195 -0.5127599 -0.8270619 -0.6599909
000020 7e e0 c5 be 57 ab 43 be b7 67 e7 be 2b c3 d5 be
       -0.38647836 -0.1910833 -0.45196316 -0.41750464
000030 36 2f 32 bf fa 35 3e be 2b 30 3c bf 60 1f 75 bf
       -0.6960329 -0.18575278 -0.73511 -0.95751
000040 d0 2e 4c bf c0 4e 37 bf 97 49 f9 be 33 84 57 bf
       -0.7975893 -0.7160454 -0.48688957 -0.84186095
000050 5e c7 62 bf 8f 7d 09 bf 7e df 06 bf 20 b2 b5 3c
       -0.8858546 -0.5370721 -0.5268477 0.022179663
000060 a1 5e 9b be 26 ff c5 be 49 40 2e bf c6 e0 d7 be
       -0.30345634 -0.38671225 -0.6806684 -0.42163676
000070 b2 16 1c bf 70 59 5f be a6 8e d4 be e7 20 8b bf
       -0.6097213 -0.21811461 -0.41515082 -1.0869416

sequential/batch_normalization_2/FusedBatchNormV3 f4 [64]
000000 60 ec 90 3e 2b 9a 8d 3e bb 04 b9 3e 0b 14 63 3e
       0.2830534 0.27656683 0.36136422 0.22175615
000010 ce 64 a2 3e 75 9c 90 3e b1 68 8a 3e b2 07 a7 3e
       0.31717533 0.28244367 0.27032998 0.3262306
000020 14 5d c2 3e 8f 84 c8 3e e3 29 29 3e 74 57 bf 3e
       0.37961638 0.39163634 0.16519885 0.3737141
000030 b3 59 c4 3e 3e 40 9c 3e 37 88 e1 3e b5 1c 96 3e
       0.38349685 0.30517763 0.44049236 0.29318777
000040 13 44 a9 3e 5e 78 c1 3e 2a d3 d9 3e fe 96 c5 3e
       0.3305975 0.37787145 0.42543918 0.3859176
000050 6e 05 90 3e 97 6d ad 3e 3a b9 89 3e 30 d3 9e 3e
       0.28129143 0.33872673 0.2689913 0.31020498
000060 3a f9 b9 3e 28 c0 bd 3e bc 45 cc 3e 3f 71 c0 3e
       0.36322957 0.37060666 0.39896953 0.375864
000070 07 8c d3 3e 0f e2 f6 3e d0 e7 90 3e 58 3d b6 3e
       0.4131777 0.48219344 0.2830186 0.35593677
000080 19 26 79 3e 7a 80 bf 3e ee 03 f3 3e b8 93 73 3e
       0.2433094 0.37402707 0.47463936 0.23786819
000090 97 85 5c 3e 16 d3 5c 3e 3a 83 d5 3e 1f c9 46 3e
       0.21535335 0.21564898 0.4170168 0.19412659
0000a0 31 ec 31 3e 34 15 b0 3e 5e b6 7a 3e 37 ec c3 3e
       0.17375256 0.34391177 0.2448363 0.38266155
0000b0 a2 bb 07 3f 55 b4 77 3e e9 dc c3 3e 8b a1 ef 3e
       0.5302068 0.24189885 0.3825448 0.46802935
0000c0 ce 0e 04 3f 56 f2 ab 3e 4a b4 b8 3e 9c 4b 7c 3e
       0.5158509 0.33583325 0.3607505 0.24638218
0000d0 d4 47 6e 3e 4b d7 70 3e 87 a6 f6 3e 87 c3 e3 3e
       0.23269588 0.23519628 0.48173925 0.44485113
0000e0 ca 2b f0 3e f6 7a 66 3e cf fb 7c 3e 64 32 ba 3e
       0.46908408 0.22507843 0.24705432 0.3636657
0000f0 2a fc 9d 3e 6b 07 93 3e cb 84 f9 3e bb 8b 93 3e
       0.30856448 0.28716597 0.48734125 0.28817543

sequential/batch_normalization_2/FusedBatchNormV31 f4 [64]
000000 58 42 04 bf 90 48 a6 be a8 08 4f be 6b 1a 32 bf
       -0.5166373 -0.32477236 -0.20218146 -0.6957156
000010 06 7b 1e bf e7 d8 ba be d4 27 0b bf e0 f4 b0 be
       -0.6190647 -0.36493608 -0.5435765 -0.34561825
000020 c0 09 1a be ed 38 fd be fe 5f db be 5c 2f 6b bf
       -0.15042782 -0.49457493 -0.42846674 -0.9186914
000030 49 0d 6f be 1e 9f 0f bf 39 f1 84 be a6 33 05 be
       -0.23344912 -0.5610217 -0.25965288 -0.13007984
000040 2c cb fa be 42 b6 0a bf 90 93 db be b3 91 bf be
       -0.48983133 -0.54184353 -0.4288602 -0.37415847
000050 cd 76 0c bf d0 96 68 be 80 22 2a bf 8e 5d fa be
       -0.54868776 -0.2271378 -0.6645889 -0.48899502
000060 4c 26 65 bf 78 e0 d2 be d6 01 d6 be 1f f7 43 bf
       -0.8951156 -0.4118688 -0.41798276 -0.7654895
000070 c5 55 0e bf ee e4 12 be 42 c7 35 be fe 12 1b bf
       -0.55599624 -0.14345142 -0.17751792 -0.60575855
000080 42 84 9a be aa c0 9e be 14 74 08 bf 51 95 18 bf
       -0.3017903 -0.31006366 -0.5330212 -0.5960284
000090 cf b2 c2 be a4 4d 0c bf 82 9e 9f be 0a bd 10 bf
       -0.38027045 -0.5480597 -0.3117562 -0.5653845
0000a0 7e 22 0b bf e5 01 40 bf fd 2f 16 bf 85 d9 07 bf
       -0.54349506 -0.7500289 -0.58666974 -0.53066283
0000b0 72 22 11 bf e8 1d 91 3d 9c 3b c1 be 91 93 a5 be
       -0.56693184 0.07085782 -0.3774079 -0.32339147
0000c0 b0 60 9c bc 91 fb ed be c3 b0 f8 be 07 23 34 bf
       -0.019089073 -0.46480992 -0.48572358 -0.7036595
0000d0 1f a8 12 bf da 54 35 bf 91 d3 05 bf fb 33 c5 be
       -0.5728778 -0.708326 -0.5227595 -0.3851622
0000e0 ef df 4d bf 77 e9 16 bf 58 e2 3f bf ac 36 aa be
       -0.8041982 -0.5894999 -0.7495475 -0.33244836
0000f0 be b3 91 be 5a 10 cf be e9 71 1d bf 48 ee d8 be
       -0.28457445 -0.40442163 -0.6150194 -0.42369294

sequential/batch_normalization_3/FusedBatchNormV3 f4 [64]
000000 c7 5a 89 3e 4d a5 b0 3e f5 fb a4 3e 16 68 a3 3e
       0.2682707 0.34501114 0.32223478 0.3191535
000010 be 13 a1 3e c2 dd 8e 3e 5c 9f 8b 3e 51 b7 a2 3e
       0.31460375 0.27903563 0.2727002 0.31780484
000020 44 42 9a 3e c8 02 93 3e a0 0b a3 3e b3 77 8e 3e
       0.30128682 0.2871306 0.31844807 0.27825698
000030 73 fe 97 3e 88 dd 87 3e 35 13 9f 3e f7 40 97 3e
       0.29686317 0.26536202 0.3106934 0.29541752
000040 25 42 84 3e 0f 98 ac 3e bb 70 9f 3e 8a ba 94 3e
       0.25831714 0.33709762 0.31140694 0.29048568
000050 4a e3 a6 3e dc ae 8d 3e 7e 4d a7 3e 07 90 97 3e
       0.32595283 0.2767247 0.3267631 0.29602072
000060 10 c3 9b 3e 8c ba a0 3e 67 d1 6a 3e dd 5d 8f 3e
       0.30422258 0.31392324 0.22931443 0.280013
000070 05 29 a0 3e 88 b1 a7 3e 31 85 97 3e 99 2a 9e 3e
       0.31281295 0.32752633 0.29593804 0.30891874
000080 0b f5 b1 3e 69 9f 98 3e 77 8c 9d 3e 07 0c 81 3e
       0.34757265 0.2980912 0.3077123 0.2520449
000090 2e 9b 82 3e e0 4e a5 3e 21 97 ae 3e 50 ca a4 3e
       0.25509018 0.3228674 0.34099677 0.32185602
0000a0 43 96 9e 3e bd c0 a8 3e 9c 9d ad 3e c0 2e 94 3e
       0.30974016 0.32959548 0.3390931 0.28941917
0000b0 5c b1 8b 3e 35 b6 9a 3e 11 3a b2 3e 27 5b 92 3e
       0.27283752 0.30217138 0.34809926 0.2858517
0000c0 c9 40 9e 3e f3 57 d1 3e a7 2a 80 3e a0 e2 a9 3e
       0.30908802 0.40887412 0.2503254 0.33180714
0000d0 6b 32 8e 3e 7f 5e a6 3e 65 01 87 3e 95 e3 a7 3e
       0.2777284 0.3249397 0.2636825 0.3279082
0000e0 96 52 a2 3e 3f 76 87 3e 62 16 a9 3e a6 69 a0 3e
       0.31703633 0.26457402 0.3302489 0.31330603
0000f0 bc e7 a1 3e 4c 4d a8 3e d5 f9 ad 3e af 32 84 3e
       0.31622112 0.32871473 0.3397967 0.2581992

sequential/batch_normalization_3/FusedBatchNormV31 f4 [64]
000000 88 41 74 bf b3 02 db be d0 b3 5d bf 3f ce bb be
       -0.9541249 -0.42775497 -0.866025 -0.3668079
000010 fe 18 4b bf 06 03 46 bf 3e a1 70 bf 48 c6 e8 be
       -0.7933501 -0.77348363 -0.93996036 -0.45463777
000020 e0 df d8 be 68 09 fd be a3 3a 89 be ae 26 2f bf
       -0.42358303 -0.4942124 -0.2680255 -0.68418396
000030 d4 d9 55 bf 9e 21 b3 be 45 b7 13 bf 0a 03 73 bf
       -0.83535504 -0.34986585 -0.5770152 -0.9492651
000040 00 13 6a bf 6a be 65 bf cd a4 7c bf e8 09 a8 bf
       -0.9143524 -0.89743674 -0.98688966 -1.3128023
000050 4a 66 2a bf 67 9c 78 bf 43 5a 74 bf 9a 49 76 bf
       -0.6656233 -0.9711365 -0.9545023 -0.9620606
000060 b5 93 b7 be f0 4d 35 bf 50 08 4c bf 26 74 46 bf
       -0.3585488 -0.7082205 -0.79700184 -0.7752098
000070 f0 09 40 bf 34 e3 a0 be 1a 4b 7d bf c4 73 58 bf
       -0.75015163 -0.31423342 -0.9894272 -0.84551644
000080 24 b9 52 bf a4 ab 3b bf 30 24 5f bf 9e a0 70 bf
       -0.8231375 -0.7330878 -0.8716459 -0.9399508
000090 b6 98 5d bf ac 9f fe be 54 ed 44 bf 0c 50 5c bf
       -0.86561143 -0.49731195 -0.76924634 -0.8605964
0000a0 d8 93 95 bf 21 88 00 bf c8 b7 6d bf 86 8f 89 bf
       -1.1685743 -0.50207716 -0.9285855 -1.0746925
0000b0 3a 55 54 bf a0 f6 2c bf 8a 5e 27 bf 98 ee 51 bf
       -0.82942545 -0.6756382 -0.6537863 -0.8200469
0000c0 c8 a1 0b bf d8 8e 16 bf fd 9a 25 bf bc 29 5f bf
       -0.54543734 -0.5881171 -0.6468962 -0.87173057
0000d0 c7 f7 73 bf 1b 88 47 bf 26 42 60 bf ab 93 5b bf
       -0.95299953 -0.77942055 -0.87600935 -0.857722
0000e0 0c bc 61 be 11 1e 3b bf dc c1 95 bf f5 2f e9 be
       -0.2204439 -0.7309275 -1.1699786 -0.455444
0000f0 25 0d 56 bf 34 1c 46 bf 18 ce 53 bf 73 d2 f3 be
       -0.83613807 -0.77386785 -0.8273635 -0.47621498

sequential/dense/MatMul f4 [128, 256]
000000 84 8f f8 bd 26 f2 8c be 35 e7 cb 3c c4 a7 bf bd
       -0.121367484 -0.27528495 0.024890522 -0.09358171
000010 37 1b 84 bd 84 96 2e be 40 44 22 3d 19 e6 c9 be
       -0.06450503 -0.17049605 0.03961587 -0.39433363
000020 3d eb 8b 3e 6b 3a b4 3c fb 4e f2 bd 20 89 45 3e
       0.2732791 0.022000512 -0.118314706 0.1929059
000030 f0 2e 8a be bf ec 25 be 26 54 6d be 79 82 80 be
       -0.26988935 -0.16203593 -0.23176631 -0.25099543
000040 4d 2d 8f 3d 4f 2a 7f be dd 93 98 bd 14 ee 2c be
       0.06991062 -0.24918483 -0.07450078 -0.16887695
000050 b3 f1 ca 3d 49 5f 97 be f1 c5 50 3e 2a c5 fd 3d
       0.09909382 -0.29564884 0.20388009 0.12391122
000060 75 48 52 be 12 df a6 bd f1 a7 3f be c6 6d cc bd
       -0.20535453 -0.08148016 -0.18716408 -0.09981875
000070 d6 b2 1d 3d d3 21 41 3c cd 24 92 be f0 b2 8f bc
       0.03850063 0.0117878495 -0.28543702 -0.017541379
000080 23 a5 82 be d8 56 ad be 2b 80 94 3d 62 12 80 be
       -0.25516614 -0.3385532 0.072510086 -0.25014025
000090 e5 18 15 be 35 73 1e be 60 d9 8c be 4e cb a6 be
       -0.14560278 -0.15473635 -0.27509594 -0.32576984
0000a0 b5 c4 a1 3e ed ae 51 bd 4f 06 c9 be e2 f9 28 be
       0.31595388 -0.051192213 -0.39262626 -0.16501573
0000b0 0f 2f 80 be 55 6e 7c bc 54 85 9f 3d 72 a3 fc bd
       -0.25035903 -0.015407165 0.07789102 -0.12335862
0000c0 8c 49 a6 be b7 71 f2 3d 29 b8 83 bb 4d d7 87 be
       -0.32477987 0.11838096 -0.0040197563 -0.2653145
0000d0 07 29 ae 3e 58 ad 06 3c e6 75 4c 3d f7 96 ce 3d
       0.34015676 0.008220039 0.049917124 0.10087388
0000e0 b0 a5 40 3d 2d 7d 00 bf 78 b9 7f 3c 78 9d 32 bd
       0.047033012 -0.50191003 0.015608184 -0.043607205
0000f0 47 f0 82 be f2 3b 94 bd 23 af 1a be 91 0e 40 be
       -0.25573942 -0.07237996 -0.15105872 -0.18755557
000100 3a ee 85 3d 74 28 21 be 76 c8 c8 bc a1 e9 2a bd
       0.06539579 -0.15738088 -0.02450965 -0.041726712
000110 fe 61 43 3d 31 f9 4c be 92 0a d8 bd 3d 5d 78 3e
       0.047700875 -0.20016934 -0.10548891 0.24254318
000120 9b 7a 20 be 72 6c 08 be 43 9f 23 be 33 d7 29 bb
       -0.1567177 -0.13322619 -0.15978722 -0.0025915622
000130 80 b0 93 3e a9 1c 2f 3e 3d f4 08 be a1 d7 46 be
       0.28845596 0.17100777 -0.1337442 -0.19418193
000140 14 4d 47 3e dd 46 3e be a4 b3 10 bd dc b3 a7 bd
       0.19462997 -0.1858172 -0.03532757 -0.08188602
000150 47 b9 35 3e d0 ad b3 be 59 e9 8c 3d 8d 3e 14 be
       0.17746459 -0.35093546 0.06880445 -0.14476986
000160 25 19 cd be e8 79 d6 bd 8b 77 de bd d6 c0 10 be
       -0.40058246 -0.104724705 -0.10862645 -0.14136061
000170 ae cb 99 3d 37 a9 3b be bf 92 32 be 9d 35 07 be
       0.07509552 -0.18326269 -0.17438792 -0.13204046
000180 de 58 b6 bd f6 ca aa bd 23 16 17 3e 63 25 43 bd
       -0.08903669 -0.08339493 0.14754538 -0.047643077
000190 59 f0 ea bd 10 d9 23 be 14 7f 42 3e 50 91 81 3e
       -0.11471624 -0.16000772 0.18993789 0.25306177
0001a0 24 c0 8b bc 0c 25 f4 3d 73 41 82 bd 65 20 b4 be
       -0.017059393 0.11921129 -0.0636014 -0.35180965
0001b0 a5 f5 43 be 1e a2 cd be 26 86 51 3d b0 9a c6 be
       -0.19136675 -0.40162748 0.051153325 -0.38789892
0001c0 34 b0 c6 be 77 6e f2 3d 9e 9e 1b be be 93 be 3e
       -0.38806307 0.11837476 -0.15197226 0.37222093
0001d0 2a f4 04 3d 15 ae 1a be 29 9a 4b be 27 81 94 be
       0.032459415 -0.1510547 -0.19883026 -0.29004785
0001e0 6d db f0 bd 91 cf 3d be d5 86 40 bc 4e d3 58 ba
       -0.11760602 -0.18536212 -0.011750896 -0.0008271233
0001f0 0a ff 92 bd b6 c2 36 3e 9e b8 3a bd 50 52 07 be
       -0.07177551 0.17847714 -0.04558622 -0.13214993
000200 48 0c e2 3d fc 6d 86 be ab 1c c0 3d 28 91 42 be
       0.11037499 -0.26255786 0.09380468 -0.19000685
000210 d2 09 33 3d dc b2 22 3c f6 1e 71 3e 14 cb 6d be
       0.043710537 0.009930339 0.23546967 -0.23222
000220 2f 7a 48 bd d1 5d 4e be aa 20 fc be b8 1a 92 3d
       -0.04894465 -0.20152976 -0.4924367 0.071340024
000230 04 b3 7d bd cc 51 f7 bd 5a 94 d3 be c4 a2 46 3a
       -0.0619383 -0.120761484 -0.4132412 0.00075773546
000240 ca d1 40 be 34 3d 20 be e8 0d c3 3d e3 d1 0e bd
       -0.18830028 -0.15648347 0.09524137 -0.034868132
000250 ea 99 32 be 99 90 7f be b4 80 ba bb e6 c3 b8 bd
       -0.17441526 -0.24957503 -0.005691612 -0.0902174
000260 1b 84 3f be 04 b9 c1 bc 9f 60 5e bd 6f 7e 90 be
       -0.18702738 -0.023647793 -0.054291364 -0.2822146
000270 da 41 10 3e f3 cc e0 be 98 26 96 be 75 16 26 be
       0.1408762 -0.43906364 -0.2932632 -0.16219504
000280 da 28 1b bd 7b 58 d5 be c7 0a 3d be 3d e7 8a bd
       -0.037880756 -0.41669068 -0.18461142 -0.067823865
000290 0f 3f 5e 3d c1 00 0e 3e 08 95 26 3c ee 5e e2 bd
       0.054259356 0.13867475 0.010167368 -0.11053263
0002a0 7b 99 6e 3e 83 09 ca bc a4 24 b6 bd 80 10 c9 3d
       0.23300736 -0.024662739 -0.088937074 0.098176
0002b0 64 cb 5b be 71 4a e8 bd 4c b0 f6 bc e4 55 c3 3d
       -0.21464306 -0.113423236 -0.030113362 0.09537867
0002c0 78 e6 78 be 85 ae 32 be 5a 5d fa bc e9 85 1f 3e
       -0.24306667 -0.17449386 -0.030562092 0.15578426
0002d0 88 aa ed bd 4d d0 9a 3e 58 cf d0 ba 86 76 d0 3d
       -0.11604792 0.30237046 -0.0015930934 0.101788566
0002e0 a0 04 23 be 2f 84 c3 bd e7 81 1f 3e 03 54 d0 3d
       -0.15919733 -0.095466964 0.15576898 0.10172274
0002f0 82 19 bc bc 93 f8 69 be be 96 59 3d 77 58 97 3c
       -0.022961382 -0.2284873 0.053122275 0.0184748
000300 5a 79 14 bd b2 1e d9 bd a5 c0 6a bc ff 60 81 bd
       -0.036248542 -0.10601558 -0.014328157 -0.06317329
000310 1f ef d0 3d 11 57 26 be e4 9c 0f be bd 89 99 be
       0.10201859 -0.1624415 -0.14024693 -0.29987898
000320 74 6c 97 bd 6d b2 58 be 82 43 8a be 47 78 75 3c
       -0.07393733 -0.21161814 -0.2700463 0.01498229
000330 3a ba 2f bc 22 5f 8f 3d 15 1a 4e 3d 38 1b 74 3d
       -0.010725552 0.07000567 0.050317843 0.05959627
000340 a1 48 f3 3e 4f 0b 83 3d 53 58 c1 bc ba c3 d1 be
       0.4751635 0.06398641 -0.023601687 -0.4096964
000350 7c 54 3e 3e 2c 24 06 3c fb 86 1f be 88 50 83 3d
       0.18586916 0.008187335 -0.15578835 0.064118445
000360 aa dc 8c be 2b 89 07 3e c7 97 cc be cb 4e 7b 3c
       -0.27512103 0.13235919 -0.39959547 0.01533861
000370 0a 45 c0 bd 5b b6 58 3d 02 62 a9 be 17 3d 1a be
       -0.09388168 0.052908283 -0.33082587 -0.15062366
000380 bd 94 7d bd 74 db 63 be 30 22 31 be 9c eb 2e be
       -0.061909426 -0.22251683 -0.17298198 -0.17082065
000390 9a c0 b5 be 71 05 94 3d 1c 83 be bd 9a b4 fc 3d
       -0.35498506 0.072276 -0.09302351 0.123391345
0003a0 c3 df ba 3b fa a8 7b bd 69 b9 98 3e d2 86 67 bd
       0.005702944 -0.061440445 0.29828957 -0.05652506
0003b0 12 19 ee 3d 70 66 93 bd 89 04 64 3d 1b 92 92 3d
       0.116258755 -0.07197273 0.055668388 0.07156774
0003c0 9d f7 03 be 61 70 8b be 93 fe 22 be 54 cb 52 be
       -0.12887426 -0.27234176 -0.15917425 -0.20585376
0003d0 36 b0 e9 3d 59 de 26 3d d4 1b 4e be 26 a4 83 be
       0.11410563 0.04073939 -0.20127803 -0.25711173
0003e0 f5 83 95 be e1 ef 6f bd e4 04 c0 be 44 aa 1b 3e
       -0.29202238 -0.058578376 -0.3750373 0.1520167
0003f0 f1 ff 1a be bf 2d ae 3d 21 a7 5a 3e ed 2e 04 bf
       -0.15136696 0.08504819 0.21352817 -0.51634103

sequential/dense_1/MatMul f4 [23, 128]
000000 e6 76 76 3b d0 24 77 be cf 87 8c 3e d2 61 3f be
       0.003760749 -0.24135137 0.27447364 -0.18689659
000010 a6 96 9d bd 6c 56 a7 bd 4c 6e 3f be a0 43 30 bd
       -0.076947495 -0.081707805 -0.18694419 -0.043033242
000020 ea 64 1f be 24 32 2c bd 5b f3 cd 3d cb 39 d4 bc
       -0.1556584 -0.042040005 0.10056182 -0.025906464
000030 f5 f5 2a be 7a 15 d3 bd 8e 59 60 be f0 6f f5 bd
       -0.16695388 -0.10306831 -0.21909162 -0.11984241
000040 9c da 06 3c 44 c5 83 be 7f 97 9b be ff 87 89 bd
       0.0082308315 -0.2573644 -0.3038902 -0.06715392
000050 55 ab e5 be 5d 2b 83 be ce 1c 04 bf ce da 92 be
       -0.44857278 -0.2561902 -0.5160645 -0.2868256
000060 4a 28 ac be ce 6d cb be 09 99 34 3e 6d 2c 7d be
       -0.33624488 -0.39732212 0.17636503 -0.24723978
000070 a3 d2 06 be a2 6d 62 3e b5 b9 bc be 34 fb 05 3e
       -0.13166289 0.22112134 -0.36860433 0.13084108
000080 94 7d 74 3e d5 39 28 3e 57 1e a2 be f0 03 90 be
       0.23876029 0.16428311 -0.31663772 -0.28128004
000090 e3 16 3c 3e d8 74 37 be 33 11 a3 bc 11 6c ac be
       0.18368106 -0.17915666 -0.019905662 -0.33676198
0000a0 ea f6 80 3c 04 f3 53 be 10 10 8b bd 55 96 af bd
       0.015742738 -0.20698172 -0.06790173 -0.085735954
0000b0 53 cb d9 3d b6 ba a8 3e 56 c5 bd be 58 b9 e9 bd
       0.10634484 0.3295495 -0.37064618 -0.11412305
0000c0 6b 3a 87 be 56 a3 3b be de 8d 67 be d4 a7 ff 3c
       -0.26411757 -0.18324026 -0.22612712 0.031207956
0000d0 e9 e0 42 be 06 9a 0c bf c5 26 d0 be 81 bd b6 be
       -0.19031109 -0.5492252 -0.4065458 -0.35691455
0000e0 ea 96 a1 be 38 35 67 bd 92 94 7f be 98 f3 8f 3e
       -0.3156045 -0.056447238 -0.24959019 0.28115535
0000f0 fa cc e2 be 9f 49 c9 be b3 47 7c be e0 36 f0 bd
       -0.4429701 -0.3931398 -0.24636726 -0.117292166
000100 71 c1 94 be 5c 9d a1 be 3b 21 00 bf f8 c6 4c be
       -0.29053834 -0.31565368 -0.50050706 -0.19997776
000110 67 24 2a be bf 70 c5 be 34 7d a3 be 9a 9f 83 be
       -0.16615449 -0.3856258 -0.3193146 -0.25707704
000120 fd af 6f be 5e 6f 6e 3e fc 7b 9b 3d 28 85 06 be
       -0.23406978 0.2328467 0.075920075 -0.13136733
000130 86 25 3f be 44 8b d3 3d 0e 57 e2 be 4e ea 80 be
       -0.18666658 0.10329297 -0.44207042 -0.2517876
000140 0a 4a 35 be 85 77 3a bd 52 09 ad 3e 6a f6 b3 be
       -0.17704025 -0.04552414 0.33796173 -0.35148937
000150 d6 0e ba bb c3 10 c2 bd 10 9f 3b be 80 cc 88 be
       -0.005678038 -0.09475853 -0.18322396 -0.2671852
000160 f4 29 f9 3b 01 c1 9f bd e4 cb 94 3d 81 19 d0 be
       0.007603878 -0.078004844 0.072654516 -0.40644458
000170 84 f8 3e bd 3f d6 0c bf b7 75 ab 3c 04 e5 1d be
       -0.04662372 -0.55014414 0.020930154 -0.15419394
000180 65 ba 9b 3d 75 77 23 bd fe fd cf be 09 6d a8 bd
       0.07603911 -0.039908845 -0.40623468 -0.08223922
000190 fa 65 f8 bd 9b d5 34 be b7 86 84 be 56 ed bc be
       -0.121288255 -0.17659609 -0.2588403 -0.36899823
0001a0 2e b8 c9 be 87 9e b2 be 2c d1 c8 bd f5 a0 03 bd
       -0.3939833 -0.34886572 -0.09805521 -0.032135922
0001b0 91 fe 93 be c7 9f 0e be 40 9f 40 3d b0 19 62 3e
       -0.28905156 -0.13928138 0.047026873 0.22080112
0001c0 ba c7 24 bb d1 c7 6b bd b6 c6 ab be f7 3d d3 3d
       -0.002514346 -0.057563607 -0.33550042 0.10314553
0001d0 78 58 23 be d0 50 00 bf 0b 52 7f be 0a 42 83 3e
       -0.15951717 -0.5012331 -0.2493364 0.2563632
0001e0 4e b9 26 bf 9e 96 20 be 68 d1 ea 3d 2a 7f 9f bd
       -0.651265 -0.15682456 0.11465722 -0.077879265
0001f0 7f b3 d4 3d a0 8d a1 be bc d7 04 3c 75 44 18 3e
       0.10385799 -0.31553364 0.008108076 0.14869864
000200 59 3c 91 be b1 06 a4 bd 8e 8b 33 3e 96 89 2a be
       -0.28366354 -0.08009089 0.17533705 -0.16654047
000210 58 31 f5 bd 62 93 f0 bd 98 cb 17 be 9e 5f fd bd
       -0.11972302 -0.11746861 -0.14823759 -0.12371753
000220 eb dc d3 bd 60 a4 b5 3d ef 41 37 3d 3d be 3f be
       -0.10344871 0.08869243 0.044740614 -0.18724914
000230 13 33 cf bd de bb 97 3c fd 4e 88 be c4 62 58 3e
       -0.101171635 0.0185222 -0.26622763 0.21131426
000240 b7 21 0e bc fd a4 1e 3d ba d6 80 be 81 7e 3f be
       -0.00867503 0.038731564 -0.25163823 -0.18700601
000250 7a 06 18 3d 71 5f 58 bd 74 10 16 3c 50 b6 77 be
       0.03711555 -0.052825395 0.009159196 -0.2419064
000260 3c 45 3b be 5c e7 ca be 64 6b 5a be 7b d6 66 3e
       -0.1828813 -0.39629638 -0.21330029 0.22542755
000270 da 36 1c 3e 45 fc c2 bd e2 af 13 be 6b 04 fb bd
       0.15255299 -0.09520773 -0.14422563 -0.12256702
000280 2d ec 6a be 47 cb a8 bd 33 88 bc be 84 e8 fa bc
       -0.22941656 -0.08241897 -0.36822662 -0.03062845
000290 ea 7e 0c 3e 3a 5c c8 be f9 53 10 3d 22 47 a3 be
       0.13720289 -0.39132863 0.035236333 -0.31890208
0002a0 4a c4 3b 3e 26 2b 06 be 04 6c bc 3b 87 5f 1d 3e
       0.18336597 -0.13102397 0.005750181 0.15368472
0002b0 ce 81 0e be 7b 3f 20 be d3 d3 a5 be cb b9 78 be
       -0.13916704 -0.15649216 -0.32388172 -0.24289624
0002c0 ec 3d 62 3d 9b 26 5e bd 90 33 58 3d 97 55 a2 be
       0.055234835 -0.054236036 0.05278355 -0.31705925
0002d0 4f f3 d0 be 9b ab be bd 89 cb 4a be a6 82 ef be
       -0.4081063 -0.09310075 -0.19804205 -0.46779364
0002e0 0e 4c 0c 3e 44 46 19 be 35 35 07 bd 86 8e 08 3d
       0.13700888 -0.1496821 -0.033009727 0.033339046
0002f0 b8 6c d4 be 9c a0 2d be 50 3d 8b bd 33 60 cc bd
       -0.41489196 -0.16955799 -0.06798804 -0.09979286
000300 95 e7 3d be eb 43 39 3e ea e9 93 be 9f 9d 65 be
       -0.18545373 0.18092315 -0.288894 -0.22423409
000310 01 40 eb be 94 1c 52 bc 2d 38 e0 3d 5f 78 02 be
       -0.4594727 -0.012824196 0.10948215 -0.1274123
000320 20 e0 e1 bd e2 ed b0 3d b0 9a d0 3d f5 bb 62 3e
       -0.110290766 0.086391225 0.10185754 0.22142012
000330 de d4 eb 3d 76 82 0f 3e e3 f7 8d be 9c c0 83 be
       0.115152106 0.1401461 -0.27728185 -0.25732887
000340 ba 35 22 3e be bb a7 be 92 12 c7 bd 82 a4 08 bd
       0.15840808 -0.32760423 -0.09720339 -0.033360012
000350 68 7f 49 be 58 57 91 be 13 1d 88 3d 25 b7 9f be
       -0.19677508 -0.2838695 0.066461705 -0.31194416
000360 e5 1d 49 3e d9 2c 2d be 66 23 bd 3d 7e f9 90 be
       0.1964031 -0.1691164 0.09235267 -0.28315347
000370 2d 27 ef 3d 4e 1a 70 be d4 2c 6a 3e 53 e9 41 3c
       0.11677394 -0.23447534 0.22868663 0.011835414
000380 78 75 6b 3c 6f 10 cb 3d c0 37 5d 3d da a7 9a be
       0.014371268 0.09915244 0.054008245 -0.30206186
000390 6e 77 42 bd 16 5e 59 3e 94 58 13 bd a5 c4 9d be
       -0.04747718 0.21227297 -0.035973147 -0.3081409
0003a0 46 ee d5 bd 19 2c c5 be 37 fe 30 bd 92 10 88 3c
       -0.10445838 -0.38510206 -0.04321119 0.016609464
0003b0 f9 5b 98 be 98 a1 83 be 70 18 c2 be 3e 1e 36 bd
       -0.2975767 -0.25709224 -0.3790927 -0.044462435
0003c0 a0 d5 da 3c de cc c1 3d b7 ca 14 3e 12 65 df bd
       0.026713192 0.094629034 0.14530455 -0.109079495
0003d0 8e ca a7 bd 94 41 24 3e 09 68 b3 bd 5f 0f da bd
       -0.08192931 0.16040641 -0.087600775 -0.10647463
0003e0 f3 13 02 3b 2c 5c a5 be db 2f 46 bd ff cf 22 3d
       0.0019848316 -0.32296884 -0.048385482 0.03974914
0003f0 42 4d 40 3e 8c 12 81 bd ce 20 d3 bd fc ea 60 bd
       0.18779472 -0.06302366 -0.103089914 -0.0549116

sequential/conv2d/Conv2D f4 [32, 3, 3, 3]
000000 00 1b 42 be 11 c2 26 bd a6 2d 17 be 04 68 f1 bd
       -0.18955612 -0.04071242 -0.14763507 -0.117874175
000010 f3 07 cc bd 37 98 24 bd 2a 37 b0 be 00 c8 a4 be
       -0.09962454 -0.040184226 -0.34417087 -0.32183838
000020 a4 5e 0b be c2 fe 7c 3e c5 23 fd 3e b3 a3 2d 3e
       -0.13610321 0.24706557 0.49441352 0.16956978
000030 c4 5a 28 bd 5b 2c 63 3e ed e6 79 bc 81 4d 52 be
       -0.041102186 0.22184889 -0.015252811 -0.20537378
000040 e6 9d 04 be cb 86 21 bd 3b 56 52 3e 30 cd ea 3e
       -0.12950858 -0.03943519 0.20540707 0.4585967
000050 04 8a 2f 3e e0 0d 3b 3e 36 d6 db 3d 92 f4 52 3d
       0.17142493 0.18267012 0.10734217 0.05150277
000060 e5 86 1b 3e 7d 78 73 3e 16 78 2d bd 2c 23 ba 3d
       0.15188177 0.23776431 -0.04235085 0.0908874
000070 e4 bd 7b 3b 9c 9c 70 be bd fe 5e be 52 3f be be
       0.0038412744 -0.23497242 -0.21776862 -0.37157685
000080 55 44 9d be fb 7e ca 3c 2d 20 ed bd 25 0b 8b bb
       -0.30716196 0.024718752 -0.11578403 -0.004243272
000090 1c e6 ba bd eb 2b 3e be 39 b8 83 be 66 f7 3a be
       -0.09125921 -0.18571441 -0.25726488 -0.18258438
0000a0 60 ef 08 be ec 41 4b b9 81 30 17 3e 21 1b 7b 3e
       -0.13372564 -0.00019384146 0.14764597 0.24522068
0000b0 a6 c4 48 3e d2 de 15 3e 1d f1 f2 bd c5 c9 3b be
       0.19606265 0.1463578 -0.11862395 -0.18338688
0000c0 bf 87 8c 3d 47 90 60 bd 0a 12 7c 3d 5d 43 73 3e
       0.06861829 -0.054825094 0.06154064 0.23756166
0000d0 77 ce 7d 3e ab 10 a0 3e c5 33 0b 3e 29 2f b5 bc
       0.24785791 0.31262717 0.13593967 -0.022117214
0000e0 c4 08 02 bd 8d 71 83 bd 1f 8e 5f be dc 7c 86 be
       -0.03174664 -0.064181425 -0.21831559 -0.26267135
0000f0 58 70 80 be df 99 bb bc 06 6f 66 bd 3b ec 63 3e
       -0.2508571 -0.02290052 -0.056258224 0.22258084
000100 da f3 b8 3c f3 9e 18 3e 64 6b df 3d 31 29 de bc
       0.022577215 0.14904384 0.10909155 -0.027119251
000110 be 5e 48 be 1f db 4c be 31 27 a9 3d 56 14 7e 3d
       -0.19567391 -0.20005463 0.08259428 0.062031113
000120 c3 ff bb 3e 99 f9 a2 3e d7 00 28 3d a6 7c 5e 3d
       0.36718568 0.31831053 0.041016426 0.054318093
000130 7e ca 26 bc 3d 02 6e bd c8 7f 9f be 0b c5 85 be
       -0.010180114 -0.058107603 -0.31152177 -0.26126894
000140 7b 3e 2e be 4e da 5b 3d f8 f2 f8 bd 9d 01 39 bc
       -0.17016022 0.05367499 -0.121557176 -0.011291889
000150 10 83 58 3e b2 93 4a be 59 32 a3 bc ce da 15 3e
       0.21143746 -0.19782904 -0.019921469 0.14634249
000160 f3 2c dc be 57 8e 56 bd 04 00 37 3d 32 db c6 be
       -0.43003044 -0.05238184 0.04467775 -0.38839108
000170 71 1c ba be 9a 82 12 3d 71 01 e4 bb d7 ff a9 3d
       -0.36349824 0.035769083 -0.0069581796 0.08300751
000180 de 18 67 bd 11 2b cd be 6e d5 1b 3e 9d 76 45 bd
       -0.0564202 -0.4007192 0.15218136 -0.04820882
000190 f0 8f 6e be 34 c2 43 bc 7b 4f 78 be e5 44 8a be
       -0.23297095 -0.011948157 -0.2424907 -0.27005687
0001a0 82 c4 01 be 9d c4 21 bd 83 27 93 3d 5e 95 43 3e
       -0.12672618 -0.039494146 0.07185271 0.19099948
0001b0 23 e8 6d be 2a bf 71 be 1a c6 13 3d ad 82 6e 3e
       -0.23233084 -0.2360808 0.036077596 0.23292036
0001c0 71 9d 98 bd 74 74 19 3e f5 43 78 3e 9e 6f fe bd
       -0.074519046 0.1498583 0.24244674 -0.12423633
0001d0 ac aa 77 bd 76 91 3d be 24 22 6d be cd e0 fc bc
       -0.0604655 -0.1851252 -0.23157555 -0.030868912
0001e0 8c de 74 3e 64 cd a3 bd 0c c0 a0 bc 77 f3 1f 3f
       0.2391302 -0.079981595 -0.019622825 0.6248087
0001f0 47 d7 97 3e 1f 8d 7c 3e 3f 27 5d be 34 60 87 be
       0.2965643 0.24663208 -0.21597002 -0.26440585
000200 9f 86 d2 bd f6 c3 1a 3e de c9 d0 bc 1f c8 c3 3d
       -0.10279583 0.15113816 -0.025486883 0.095596544
000210 9e da dd 3e e2 80 1f 3e f4 fd 87 bc 19 9c 98 3b
       0.43330854 0.15576509 -0.016600586 0.00465728
000220 3c 06 b6 bd e4 16 55 be c2 24 a5 3e 48 90 fe 3e
       -0.08887908 -0.20809513 0.32254606 0.49719453
000230 4a 1d 56 3e 8a 88 a8 3d f9 9b 44 3e 22 8b c3 3d
       0.2090961 0.08229168 0.19200124 0.09548022
000240 d7 9f 78 3d 64 2c 81 3e b1 71 2b bd bd 6d 60 3e
       0.06069931 0.2522918 -0.04185647 0.21916862
000250 37 08 99 3e 05 7b ed 3d 0f f4 5f be 97 de d0 bc
       0.2988908 0.1159573 -0.21870445 -0.025496764
000260 66 f8 89 bc 82 e8 85 bd 3f c0 82 bc 65 7a 9a bd
       -0.016842078 -0.06538488 -0.01596081 -0.07542876
000270 2e 9b 9b be 51 01 ad bd 94 03 a5 be dd c7 5f be
       -0.3039183 -0.08447517 -0.32229292 -0.21853586
000280 57 1e f8 bd 25 a4 c0 bd 32 99 31 bd 33 90 90 3d
       -0.12115162 -0.09406308 -0.04335899 0.07058754
000290 d9 1f f7 3c dd 73 eb bc 33 29 77 bd 92 95 88 bb
       0.030166553 -0.028741771 -0.060342025 -0.004168221
0002a0 d1 9b 88 be 63 da 52 be 0e 4a 40 be 00 b5 6a 3e
       -0.26681378 -0.2059112 -0.1877825 0.22920609
0002b0 e9 9c be 3e 3c b5 ae 3e 0c 8f 2f 3e ef 30 40 bc
       0.37229088 0.34122646 0.17144412 -0.011730417
0002c0 74 c0 43 bd d9 8f 7d be 64 bf 76 be f0 a2 b8 bd
       -0.04779096 -0.24761905 -0.24096447 -0.09015453
0002d0 ef 84 94 3e e5 71 01 3e 3e ad d1 3d 06 62 b1 3d
       0.2900767 0.12641104 0.102381214 0.086612746
0002e0 12 ce 31 bb 98 4f 0a 3d f5 49 98 bd 0a 79 da 3c
       -0.0027130884 0.033767313 -0.07435981 0.026669044
0002f0 f0 19 82 bd 86 b4 ba 3d 98 5b ee bd fa 9e 24 3e
       -0.063526034 0.09116463 -0.11638564 0.1607627
000300 84 28 5c 3e c0 17 0c bd 9c dd 48 3e af da be bd
       0.2149983 -0.034202337 0.19615787 -0.09319054
000310 0e d3 20 be 25 8b 9e 3d 7b 9e 35 3e 33 51 4d 3d
       -0.15705511 0.077413835 0.17736237 0.050126266
000320 62 df 4c 3e 25 dc a6 bc 53 18 9d be cf a4 a7 bd
       0.20007089 -0.020368645 -0.3068262 -0.081857316
000330 09 7b bc be 03 4e b9 be f5 14 71 bd ae 9b 99 bc
       -0.36812618 -0.3619233 -0.058857877 -0.018750992
000340 69 44 b3 be f3 a9 18 be 87 00 fb 3d 52 d4 c5 be
       -0.3501313 -0.1490858 0.1225596 -0.3863855
000350 5e b8 3a bd 2f 67 7f 3b cd 6b dd be 11 e8 9e bd
       -0.045585983 0.0038971414 -0.43246308 -0.07759107
000360 77 70 5c bd 50 73 ec 3e 16 c7 78 bd 97 50 5e 3d
       -0.053818192 0.46181726 -0.06073674 0.054276075
000370 f9 81 39 3e 49 8a 8f 3d 88 15 78 be ef 1a 61 bd
       0.18115987 0.07008798 -0.24226964 -0.054957327
000380 33 dc a9 be 06 b8 59 3e 09 8c 9d 3e 09 25 26 bd
       -0.3317581 0.21261606 0.307709 -0.040562663
000390 af 38 de 3d b4 1b ed 3e 2a 24 0d 3e 6c f1 11 be
       0.10850655 0.46310198 0.13783327 -0.14252251
0003a0 81 f2 f2 bd 10 68 89 be a4 01 6d bd 0a da 4e 3e
       -0.1186266 -0.26837206 -0.057862893 0.20200363
0003b0 17 b8 9c bc 36 6c d6 bd d1 74 a5 3e a0 a2 f7 ba
       -0.01913075 -0.10469858 0.32315686 -0.001889307
0003c0 4f 14 47 be 71 78 64 3e 5d 7e 65 bd 45 34 24 be
       -0.19441341 0.2231157 -0.056028713 -0.16035564
0003d0 5d 9f 94 be 6c 45 68 be 4f d3 b8 be 3d 4d ea bd
       -0.29027835 -0.22682732 -0.36098716 -0.11440513
0003e0 28 db 66 be c1 3c 1c 3d 44 a3 98 bd 1a 55 18 bc
       -0.22544539 0.038143877 -0.074530154 -0.009297634
0003f0 fc 57 95 be 0c 1c e1 be c0 b6 dc be 0e 74 63 3d
       -0.2916869 -0.4396671 -0.43108177 0.0555306

sequential/conv2d_1/Conv2D f4 [32, 3, 3, 32]
000000 bd 21 4e be 9b 79 0c bd 5e d3 83 bc 70 3f 21 bb
       -0.20130058 -0.03429566 -0.016091999 -0.0024604462
000010 58 38 c4 bc 26 8e 4d 3d c2 71 8a bc e5 fa 96 bd
       -0.023952648 0.05018439 -0.016899947 -0.07372073
000020 f0 4c 91 bd 71 0e 83 bc 35 de d8 bd 75 16 65 bd
       -0.07094753 -0.015998097 -0.10589258 -0.05592962
000030 7b 61 13 3e d5 3c 77 bb 10 35 10 3e 5c 9d 8f 3d
       0.14392655 -0.0037725468 0.14082742 0.07012436
000040 0c 34 16 3e 6c 2a d5 bc 30 53 38 be 41 14 dc 3c
       0.14668292 -0.026021205 -0.18000484 0.026865127
000050 ef 73 93 3d 94 96 eb 3d 83 4d 73 be ed 00 23 3c
       0.07199847 0.1150333 -0.23760037 0.009948951
000060 f2 26 ba bd 4c c0 8b 3e f1 c9 3b 3e 66 cb 67 3e
       -0.090894595 0.27295148 0.18338753 0.22636184
000070 6c 94 9b be 5e cb 33 3e 93 e3 22 3d 68 64 e3 3c
       -0.30386674 0.17558047 0.039767813 0.027757838
000080 36 f5 7b bd d5 78 dd 3b 9e f7 dc bc dd 34 96 3d
       -0.06151315 0.006758789 -0.026973542 0.073343016
000090 c9 8c 6e 3e c3 b3 a3 3c c8 c1 4f bd aa 9d f1 3d
       0.23295893 0.019983178 -0.050721914 0.1179765
0000a0 d5 ba 11 3e e7 9a f2 3c e9 36 8e 3e a0 5e 22 3e
       0.14231427 0.029614879 0.27776268 0.15856409
0000b0 a3 e0 1b 3e 25 73 a2 bd 28 b9 db bd 05 1a 40 3e
       0.15222411 -0.07932118 -0.10728675 0.18759926
0000c0 de 2b 75 3c c4 48 29 3e d9 bd c4 3e bc 75 bb be
       0.014964072 0.16531664 0.38426092 -0.36613262
0000d0 6b 1f 8f 3e 98 2e 10 3c 49 5f 75 bd 2e 77 1e 3e
       0.27953658 0.008800171 -0.059905324 0.15475151
0000e0 dd 0d 8f bd 6e b2 da 3d 0f 20 9d 3b 43 6a 83 3c
       -0.06985066 0.10678564 0.0047950814 0.01604188
0000f0 fa 8b 17 be da 70 61 3e 7c df 33 3d 1b 0b 1a 3e
       -0.1479949 0.22015706 0.043914303 0.15043299
000100 25 44 d0 3e ae 79 2b 3e 72 fb b8 3d 43 75 32 be
       0.4067699 0.16745636 0.090323344 -0.17427544
000110 54 84 76 3d 11 c9 90 3e e9 2f 9d 3d cd e4 12 3d
       0.06018479 0.28278401 0.07675154 0.035862733
000120 09 de b3 3e 61 cc 81 3e 93 ad 92 3e ca 06 41 be
       0.35130337 0.2535124 0.28648052 -0.18850246
000130 ca 81 66 3e 4d c5 8a 3a c3 87 b4 bd 9d 8c d9 3d
       0.22510448 0.0010587365 -0.08814957 0.10622523
000140 3d 0b a5 3e b8 29 a0 bd db cc a7 bd 05 b6 29 3e
       0.32235137 -0.07820457 -0.0819337 0.16573341
000150 e8 9b 4f 3e 35 d1 3e 3e e8 56 4a be 27 ee d5 bd
       0.20274317 0.18634494 -0.19759715 -0.104458146
000160 22 09 a4 3d 93 88 0c 3d b9 17 99 be 02 1e 8c 3d
       0.080095544 0.034309935 -0.2990091 0.06841661
000170 c5 6d 34 3e f0 42 40 be dd 9a ce 3d 98 22 89 3e
       0.17619999 -0.18775535 0.100881316 0.26784205
000180 2d 20 85 be e3 a6 34 bd 44 df 0c be 8a 08 5e bd
       -0.2600111 -0.044104468 -0.13757044 -0.054207362
000190 3e 54 1b be 44 0c 70 be b5 fc ea bd a2 25 8d bd
       -0.15168855 -0.23442179 -0.11473981 -0.068919435
0001a0 6c 38 8e be c3 eb 7b 3e 74 d6 9b be ef aa bf 3c
       -0.2777742 0.24601655 -0.30437052 0.023396937
0001b0 af 98 16 be a2 bc 0d be 44 1e f8 3d ca f5 38 be
       -0.14706682 -0.13841489 0.12115148 -0.18062511
0001c0 a3 97 6b be 96 2a f6 3c 16 fc 86 be 4c 5f 1d 3d
       -0.23007064 0.030049603 -0.263642 0.03842096
0001d0 84 2b 8f bd 8d 91 7d 3e 51 93 ba be bc b5 3e be
       -0.06990722 0.24762554 -0.36440518 -0.18624014
0001e0 0b d8 0e be a6 7d ee bd 7f c4 50 3e 7e 2a 28 3e
       -0.13949601 -0.11645059 0.20387457 0.1642246
0001f0 da 92 35 be 75 df 05 be f2 87 a5 3d 2b 40 8a be
       -0.177318 -0.13073523 0.0808257 -0.2700208
000200 99 4a f4 be 4f 94 89 be 5d 6d 26 3e 06 b6 58 3e
       -0.47713163 -0.26870963 0.16252656 0.21163186
000210 c2 82 a5 3e f9 e6 0e 3e 98 0a bf be 73 58 9d 3d
       0.32326323 0.13955297 -0.3731277 0.07682886
000220 1f dd 56 be 4b b5 f8 3d 6e b2 64 3d ad f0 05 3e
       -0.20982789 0.12143954 0.055834226 0.13080092
000230 82 e3 e0 3d 49 f2 b1 3d d9 62 d9 3d 80 e6 05 bc
       0.10980894 0.0868879 0.10614557 -0.008172631
000240 ce a1 ad be 2e 42 3c 3d c7 28 13 3e c2 70 c8 be
       -0.3391251 0.04596155 0.14371024 -0.39148527
000250 fd fa 17 3e 70 d8 7d 3e b8 73 33 3d 19 7f 14 bf
       0.14841838 0.24789596 0.04381153 -0.58006436
000260 b9 d4 83 3e 2f 44 ec 3d 00 8a 76 3e 71 53 74 3e
       0.25748232 0.115364425 0.2407608 0.23859955
000270 28 ec 6e be e8 08 13 3e 9e e4 1a bd 4b 14 cb bd
       -0.23332274 0.14358866 -0.037815683 -0.0991598
000280 d3 f8 e7 3c ff 92 0b be da 26 05 3d c7 3b 4c bd
       0.02831689 -0.13630293 0.032507755 -0.049861696
000290 74 74 3b 3e f9 80 7e 3e 00 dd 4d bd 62 a9 e8 bc
       0.18306142 0.24853887 -0.05025959 -0.02840108
0002a0 b0 e6 30 3e 86 16 2a be e2 96 86 3d 07 f5 9b be
       0.172755 -0.16610155 0.06571747 -0.3046038
0002b0 86 ce a7 3e 3b d6 17 3e dc 47 5f bb 48 b3 eb 3d
       0.32774752 0.14827816 -0.003406993 0.115088046
0002c0 54 ef 9a 3e 12 eb 03 3e 67 41 fe 3c 44 ab f3 3d
       0.30260718 0.12882641 0.031037046 0.11897901
0002d0 21 2b 83 be 20 9b a4 bc d4 5f 5e 3e 05 01 9c bc
       -0.25618842 -0.0200935 0.21716243 -0.019043455
0002e0 c0 6c 3f be ea 72 17 3e 6b fb 96 3c f7 d0 52 3d
       -0.18693829 0.1478993 0.018430432 0.051468816
0002f0 e2 30 23 be f3 7a 91 be 4c 06 73 bd 01 54 ab 3e
       -0.15936616 -0.28414115 -0.059332177 0.33462527
000300 a8 dc 09 3e 65 f4 fc bd 45 ef a3 bd 71 a5 fc bd
       0.1346308 -0.12351302 -0.080046214 -0.12336243
000310 0f 15 82 be 46 e4 78 be b2 db 1c 3e 45 2d df bd
       -0.2540669 -0.2430583 0.15318182 -0.10897306
000320 fc 5e 30 be 00 e2 f2 3c 2e f1 86 bd 7d f8 2b 3e
       -0.17223734 0.02964878 -0.0658897 0.1679401
000330 1c a8 8a be f3 fb 74 bc 28 f9 b4 3c 45 35 c1 3c
       -0.27081382 -0.0149526475 0.022091463 0.023584971
000340 26 95 c2 bd 0c 3e 02 be 0f a7 f3 bc c0 22 f7 3d
       -0.09501104 -0.12718982 -0.029742746 0.12067175
000350 51 e9 16 bc 6b 83 d7 3d 02 1b e9 3d 2c 56 0f 3d
       -0.0092109 0.10523113 0.113821045 0.03499429
000360 dc 3a 1d be d7 02 89 bd 8b da 81 bc 9d 8d 1b 3e
       -0.15354484 -0.06689995 -0.01585128 0.1519074
000370 81 e6 43 be 65 23 7f bd 42 23 6a 3e e2 e1 46 be
       -0.19130899 -0.062289614 0.22865012 -0.19422105
000380 de 7e 96 be 51 2e b3 3d 54 4e 21 3e 75 05 05 be
       -0.29393667 0.087490685 0.15752536 -0.12990363
000390 ea bf 8e bd cf cd 61 bc 78 0e 10 be fc d4 39 3d
       -0.069701985 -0.013781979 -0.1406802 0.045369133
0003a0 cb 67 b7 be fb 29 24 bd b7 b3 1a be 66 8a f2 3d
       -0.35821375 -0.0400791 -0.15107618 0.11842804
0003b0 28 b1 f5 bd 5e 54 d6 3d ad 29 ec bd a0 3b af bd
       -0.119966805 0.104653105 -0.115313865 -0.085562944
0003c0 76 1b bd be 31 37 29 be 40 b2 47 be ac df cf 3d
       -0.36935014 -0.1652496 -0.1950159 0.10150084
0003d0 96 9f 5d 3d 94 81 8b 3d 5c e4 cb be 0e c9 e7 be
       0.05410727 0.068118244 -0.39822662 -0.4527058
0003e0 14 0b 7e 3e c4 26 62 3b 0e ee 65 bc 2b 8a d8 3d
       0.24808913 0.003450797 -0.014033807 0.105732284
0003f0 9f f0 1a be 93 9c ec bc 42 43 cf bd f2 a0 9b bd
       -0.15130852 -0.028883254 -0.1012025 -0.07599057
